ConditionalGMM(
  (gate): GateNN(
    (fc1): Linear(in_features=1, out_features=64, bias=True)
    (fc2): Linear(in_features=64, out_features=3, bias=True)
  )
  (gaussian_list): ModuleList(
    (0): GaussianNN(
      (fc1): Linear(in_features=1, out_features=64, bias=True)
      (fc2): Linear(in_features=64, out_features=64, bias=True)
      (fc3_mean): Linear(in_features=64, out_features=2, bias=True)
      (fc3_chol): Linear(in_features=64, out_features=3, bias=True)
    )
    (1): GaussianNN(
      (fc1): Linear(in_features=1, out_features=64, bias=True)
      (fc2): Linear(in_features=64, out_features=64, bias=True)
      (fc3_mean): Linear(in_features=64, out_features=2, bias=True)
      (fc3_chol): Linear(in_features=64, out_features=3, bias=True)
    )
    (2): GaussianNN(
      (fc1): Linear(in_features=1, out_features=64, bias=True)
      (fc2): Linear(in_features=64, out_features=64, bias=True)
      (fc3_mean): Linear(in_features=64, out_features=2, bias=True)
      (fc3_chol): Linear(in_features=64, out_features=3, bias=True)
    )
  )
)
/home/luyao/miniconda3/envs/ITPAL_luyao/lib/python3.7/site-packages/torch/autograd/__init__.py:199: UserWarning: Error detected in BmmBackward0. Traceback of forward call that caused the error:
  File "/home/luyao/amortized_vi_trpl/GMM/GMM_model.py", line 188, in <module>
    train_model(model, target, n_epochs, batch_size, n_context, n_components, eps, beta, optimizer, device)
…
